
  4%|███▎                                                                               | 3/74 [00:01<00:29,  2.44it/s]
Sequential(
  (0): DaVit(
    (stem): Stem(
      (conv): Conv2d(3, 128, kernel_size=(7, 7), stride=(4, 4), padding=(3, 3))
      (norm): LayerNorm2d((128,), eps=1e-05, elementwise_affine=True)
    )
    (stages): Sequential(
      (0): DaVitStage(
        (downsample): Identity()
        (blocks): Sequential(
          (0): Sequential(
            (0): SpatialBlock(
              (cpe1): ConvPosEnc(
                (proj): Conv2d(128, 128, kernel_size=(3, 3), stride=(1, 1), padding=(1, 1), groups=128)
                (act): Identity()
              )
              (norm1): LayerNorm((128,), eps=1e-05, elementwise_affine=True)
              (attn): WindowAttention(
                (qkv): Linear(in_features=128, out_features=384, bias=True)
                (proj): Linear(in_features=128, out_features=128, bias=True)
                (softmax): Softmax(dim=-1)
              )
              (drop_path1): Identity()
              (cpe2): ConvPosEnc(
                (proj): Conv2d(128, 128, kernel_size=(3, 3), stride=(1, 1), padding=(1, 1), groups=128)
                (act): Identity()
              )
              (norm2): LayerNorm((128,), eps=1e-05, elementwise_affine=True)
              (mlp): Mlp(
                (fc1): Linear(in_features=128, out_features=512, bias=True)
                (act): GELU(approximate='none')
                (drop1): Dropout(p=0.0, inplace=False)
                (norm): Identity()
                (fc2): Linear(in_features=512, out_features=128, bias=True)
                (drop2): Dropout(p=0.0, inplace=False)
              )
              (drop_path2): Identity()
            )
            (1): ChannelBlock(
              (cpe1): ConvPosEnc(
                (proj): Conv2d(128, 128, kernel_size=(3, 3), stride=(1, 1), padding=(1, 1), groups=128)
                (act): Identity()
              )
              (norm1): LayerNorm((128,), eps=1e-05, elementwise_affine=True)
              (attn): ChannelAttention(
                (qkv): Linear(in_features=128, out_features=384, bias=True)
                (proj): Linear(in_features=128, out_features=128, bias=True)
              )
              (drop_path1): Identity()
              (cpe2): ConvPosEnc(
                (proj): Conv2d(128, 128, kernel_size=(3, 3), stride=(1, 1), padding=(1, 1), groups=128)
                (act): Identity()
              )
              (norm2): LayerNorm((128,), eps=1e-05, elementwise_affine=True)
              (mlp): Mlp(
                (fc1): Linear(in_features=128, out_features=512, bias=True)
                (act): GELU(approximate='none')
                (drop1): Dropout(p=0.0, inplace=False)
                (norm): Identity()
                (fc2): Linear(in_features=512, out_features=128, bias=True)
                (drop2): Dropout(p=0.0, inplace=False)
              )
              (drop_path2): Identity()
            )
          )
        )
      )
      (1): DaVitStage(
        (downsample): Downsample(
          (norm): LayerNorm2d((128,), eps=1e-05, elementwise_affine=True)
          (conv): Conv2d(128, 256, kernel_size=(2, 2), stride=(2, 2))
        )
        (blocks): Sequential(
          (0): Sequential(
            (0): SpatialBlock(
              (cpe1): ConvPosEnc(
                (proj): Conv2d(256, 256, kernel_size=(3, 3), stride=(1, 1), padding=(1, 1), groups=256)
                (act): Identity()
              )
              (norm1): LayerNorm((256,), eps=1e-05, elementwise_affine=True)
              (attn): WindowAttention(
                (qkv): Linear(in_features=256, out_features=768, bias=True)
                (proj): Linear(in_features=256, out_features=256, bias=True)
                (softmax): Softmax(dim=-1)
              )
              (drop_path1): Identity()
              (cpe2): ConvPosEnc(
                (proj): Conv2d(256, 256, kernel_size=(3, 3), stride=(1, 1), padding=(1, 1), groups=256)
                (act): Identity()
              )
              (norm2): LayerNorm((256,), eps=1e-05, elementwise_affine=True)
              (mlp): Mlp(
                (fc1): Linear(in_features=256, out_features=1024, bias=True)
                (act): GELU(approximate='none')
                (drop1): Dropout(p=0.0, inplace=False)
                (norm): Identity()
                (fc2): Linear(in_features=1024, out_features=256, bias=True)
                (drop2): Dropout(p=0.0, inplace=False)
              )
              (drop_path2): Identity()
            )
            (1): ChannelBlock(
              (cpe1): ConvPosEnc(
                (proj): Conv2d(256, 256, kernel_size=(3, 3), stride=(1, 1), padding=(1, 1), groups=256)
                (act): Identity()
              )
              (norm1): LayerNorm((256,), eps=1e-05, elementwise_affine=True)
              (attn): ChannelAttention(
                (qkv): Linear(in_features=256, out_features=768, bias=True)
                (proj): Linear(in_features=256, out_features=256, bias=True)
              )
              (drop_path1): Identity()
              (cpe2): ConvPosEnc(
                (proj): Conv2d(256, 256, kernel_size=(3, 3), stride=(1, 1), padding=(1, 1), groups=256)
                (act): Identity()
              )
              (norm2): LayerNorm((256,), eps=1e-05, elementwise_affine=True)
              (mlp): Mlp(
                (fc1): Linear(in_features=256, out_features=1024, bias=True)
                (act): GELU(approximate='none')
                (drop1): Dropout(p=0.0, inplace=False)
                (norm): Identity()
                (fc2): Linear(in_features=1024, out_features=256, bias=True)
                (drop2): Dropout(p=0.0, inplace=False)
              )
              (drop_path2): Identity()
            )
          )
        )
      )
      (2): DaVitStage(
        (downsample): Downsample(
          (norm): LayerNorm2d((256,), eps=1e-05, elementwise_affine=True)
          (conv): Conv2d(256, 512, kernel_size=(2, 2), stride=(2, 2))
        )
        (blocks): Sequential(
          (0): Sequential(
            (0): SpatialBlock(
              (cpe1): ConvPosEnc(
                (proj): Conv2d(512, 512, kernel_size=(3, 3), stride=(1, 1), padding=(1, 1), groups=512)
                (act): Identity()
              )
              (norm1): LayerNorm((512,), eps=1e-05, elementwise_affine=True)
              (attn): WindowAttention(
                (qkv): Linear(in_features=512, out_features=1536, bias=True)
                (proj): Linear(in_features=512, out_features=512, bias=True)
                (softmax): Softmax(dim=-1)
              )
              (drop_path1): Identity()
              (cpe2): ConvPosEnc(
                (proj): Conv2d(512, 512, kernel_size=(3, 3), stride=(1, 1), padding=(1, 1), groups=512)
                (act): Identity()
              )
              (norm2): LayerNorm((512,), eps=1e-05, elementwise_affine=True)
              (mlp): Mlp(
                (fc1): Linear(in_features=512, out_features=2048, bias=True)
                (act): GELU(approximate='none')
                (drop1): Dropout(p=0.0, inplace=False)
                (norm): Identity()
                (fc2): Linear(in_features=2048, out_features=512, bias=True)
                (drop2): Dropout(p=0.0, inplace=False)
              )
              (drop_path2): Identity()
            )
            (1): ChannelBlock(
              (cpe1): ConvPosEnc(
                (proj): Conv2d(512, 512, kernel_size=(3, 3), stride=(1, 1), padding=(1, 1), groups=512)
                (act): Identity()
              )
              (norm1): LayerNorm((512,), eps=1e-05, elementwise_affine=True)
              (attn): ChannelAttention(
                (qkv): Linear(in_features=512, out_features=1536, bias=True)
                (proj): Linear(in_features=512, out_features=512, bias=True)
              )
              (drop_path1): Identity()
              (cpe2): ConvPosEnc(
                (proj): Conv2d(512, 512, kernel_size=(3, 3), stride=(1, 1), padding=(1, 1), groups=512)
                (act): Identity()
              )
              (norm2): LayerNorm((512,), eps=1e-05, elementwise_affine=True)
              (mlp): Mlp(
                (fc1): Linear(in_features=512, out_features=2048, bias=True)
                (act): GELU(approximate='none')
                (drop1): Dropout(p=0.0, inplace=False)
                (norm): Identity()
                (fc2): Linear(in_features=2048, out_features=512, bias=True)
                (drop2): Dropout(p=0.0, inplace=False)
              )
              (drop_path2): Identity()
            )
          )
          (1): Sequential(
            (0): SpatialBlock(
              (cpe1): ConvPosEnc(
                (proj): Conv2d(512, 512, kernel_size=(3, 3), stride=(1, 1), padding=(1, 1), groups=512)
                (act): Identity()
              )
              (norm1): LayerNorm((512,), eps=1e-05, elementwise_affine=True)
              (attn): WindowAttention(
                (qkv): Linear(in_features=512, out_features=1536, bias=True)
                (proj): Linear(in_features=512, out_features=512, bias=True)
                (softmax): Softmax(dim=-1)
              )
              (drop_path1): Identity()
              (cpe2): ConvPosEnc(
                (proj): Conv2d(512, 512, kernel_size=(3, 3), stride=(1, 1), padding=(1, 1), groups=512)
                (act): Identity()
              )
              (norm2): LayerNorm((512,), eps=1e-05, elementwise_affine=True)
              (mlp): Mlp(
                (fc1): Linear(in_features=512, out_features=2048, bias=True)
                (act): GELU(approximate='none')
                (drop1): Dropout(p=0.0, inplace=False)
                (norm): Identity()
                (fc2): Linear(in_features=2048, out_features=512, bias=True)
                (drop2): Dropout(p=0.0, inplace=False)
              )
              (drop_path2): Identity()
            )
            (1): ChannelBlock(
              (cpe1): ConvPosEnc(
                (proj): Conv2d(512, 512, kernel_size=(3, 3), stride=(1, 1), padding=(1, 1), groups=512)
                (act): Identity()
              )
              (norm1): LayerNorm((512,), eps=1e-05, elementwise_affine=True)
              (attn): ChannelAttention(
                (qkv): Linear(in_features=512, out_features=1536, bias=True)
                (proj): Linear(in_features=512, out_features=512, bias=True)
              )
              (drop_path1): Identity()
              (cpe2): ConvPosEnc(
                (proj): Conv2d(512, 512, kernel_size=(3, 3), stride=(1, 1), padding=(1, 1), groups=512)
                (act): Identity()
              )
              (norm2): LayerNorm((512,), eps=1e-05, elementwise_affine=True)
              (mlp): Mlp(
                (fc1): Linear(in_features=512, out_features=2048, bias=True)
                (act): GELU(approximate='none')
                (drop1): Dropout(p=0.0, inplace=False)
                (norm): Identity()
                (fc2): Linear(in_features=2048, out_features=512, bias=True)
                (drop2): Dropout(p=0.0, inplace=False)
              )
              (drop_path2): Identity()
            )
          )
          (2): Sequential(
            (0): SpatialBlock(
              (cpe1): ConvPosEnc(
                (proj): Conv2d(512, 512, kernel_size=(3, 3), stride=(1, 1), padding=(1, 1), groups=512)
                (act): Identity()
              )
              (norm1): LayerNorm((512,), eps=1e-05, elementwise_affine=True)
              (attn): WindowAttention(
                (qkv): Linear(in_features=512, out_features=1536, bias=True)
                (proj): Linear(in_features=512, out_features=512, bias=True)
                (softmax): Softmax(dim=-1)
              )
              (drop_path1): Identity()
              (cpe2): ConvPosEnc(
                (proj): Conv2d(512, 512, kernel_size=(3, 3), stride=(1, 1), padding=(1, 1), groups=512)
                (act): Identity()
              )
              (norm2): LayerNorm((512,), eps=1e-05, elementwise_affine=True)
              (mlp): Mlp(
                (fc1): Linear(in_features=512, out_features=2048, bias=True)
                (act): GELU(approximate='none')
                (drop1): Dropout(p=0.0, inplace=False)
                (norm): Identity()
                (fc2): Linear(in_features=2048, out_features=512, bias=True)
                (drop2): Dropout(p=0.0, inplace=False)
              )
              (drop_path2): Identity()
            )
            (1): ChannelBlock(
              (cpe1): ConvPosEnc(
                (proj): Conv2d(512, 512, kernel_size=(3, 3), stride=(1, 1), padding=(1, 1), groups=512)
                (act): Identity()
              )
              (norm1): LayerNorm((512,), eps=1e-05, elementwise_affine=True)
              (attn): ChannelAttention(
                (qkv): Linear(in_features=512, out_features=1536, bias=True)
                (proj): Linear(in_features=512, out_features=512, bias=True)
              )
              (drop_path1): Identity()
              (cpe2): ConvPosEnc(
                (proj): Conv2d(512, 512, kernel_size=(3, 3), stride=(1, 1), padding=(1, 1), groups=512)
                (act): Identity()
              )
              (norm2): LayerNorm((512,), eps=1e-05, elementwise_affine=True)
              (mlp): Mlp(
                (fc1): Linear(in_features=512, out_features=2048, bias=True)
                (act): GELU(approximate='none')
                (drop1): Dropout(p=0.0, inplace=False)
                (norm): Identity()
                (fc2): Linear(in_features=2048, out_features=512, bias=True)
                (drop2): Dropout(p=0.0, inplace=False)
              )
              (drop_path2): Identity()
            )
          )
          (3): Sequential(
            (0): SpatialBlock(
              (cpe1): ConvPosEnc(
                (proj): Conv2d(512, 512, kernel_size=(3, 3), stride=(1, 1), padding=(1, 1), groups=512)
                (act): Identity()
              )
              (norm1): LayerNorm((512,), eps=1e-05, elementwise_affine=True)
              (attn): WindowAttention(
                (qkv): Linear(in_features=512, out_features=1536, bias=True)
                (proj): Linear(in_features=512, out_features=512, bias=True)
                (softmax): Softmax(dim=-1)
              )
              (drop_path1): Identity()
              (cpe2): ConvPosEnc(
                (proj): Conv2d(512, 512, kernel_size=(3, 3), stride=(1, 1), padding=(1, 1), groups=512)
                (act): Identity()
              )
              (norm2): LayerNorm((512,), eps=1e-05, elementwise_affine=True)
              (mlp): Mlp(
                (fc1): Linear(in_features=512, out_features=2048, bias=True)
                (act): GELU(approximate='none')
                (drop1): Dropout(p=0.0, inplace=False)
                (norm): Identity()
                (fc2): Linear(in_features=2048, out_features=512, bias=True)
                (drop2): Dropout(p=0.0, inplace=False)
              )
              (drop_path2): Identity()
            )
            (1): ChannelBlock(
              (cpe1): ConvPosEnc(
                (proj): Conv2d(512, 512, kernel_size=(3, 3), stride=(1, 1), padding=(1, 1), groups=512)
                (act): Identity()
              )
              (norm1): LayerNorm((512,), eps=1e-05, elementwise_affine=True)
              (attn): ChannelAttention(
                (qkv): Linear(in_features=512, out_features=1536, bias=True)
                (proj): Linear(in_features=512, out_features=512, bias=True)
              )
              (drop_path1): Identity()
              (cpe2): ConvPosEnc(
                (proj): Conv2d(512, 512, kernel_size=(3, 3), stride=(1, 1), padding=(1, 1), groups=512)
                (act): Identity()
              )
              (norm2): LayerNorm((512,), eps=1e-05, elementwise_affine=True)
              (mlp): Mlp(
                (fc1): Linear(in_features=512, out_features=2048, bias=True)
                (act): GELU(approximate='none')
                (drop1): Dropout(p=0.0, inplace=False)
                (norm): Identity()
                (fc2): Linear(in_features=2048, out_features=512, bias=True)
                (drop2): Dropout(p=0.0, inplace=False)
              )
              (drop_path2): Identity()
            )
          )
          (4): Sequential(
            (0): SpatialBlock(
              (cpe1): ConvPosEnc(
                (proj): Conv2d(512, 512, kernel_size=(3, 3), stride=(1, 1), padding=(1, 1), groups=512)
                (act): Identity()
              )
              (norm1): LayerNorm((512,), eps=1e-05, elementwise_affine=True)
              (attn): WindowAttention(
                (qkv): Linear(in_features=512, out_features=1536, bias=True)
                (proj): Linear(in_features=512, out_features=512, bias=True)
                (softmax): Softmax(dim=-1)
              )
              (drop_path1): Identity()
              (cpe2): ConvPosEnc(
                (proj): Conv2d(512, 512, kernel_size=(3, 3), stride=(1, 1), padding=(1, 1), groups=512)
                (act): Identity()
              )
              (norm2): LayerNorm((512,), eps=1e-05, elementwise_affine=True)
              (mlp): Mlp(
                (fc1): Linear(in_features=512, out_features=2048, bias=True)
                (act): GELU(approximate='none')
                (drop1): Dropout(p=0.0, inplace=False)
                (norm): Identity()
                (fc2): Linear(in_features=2048, out_features=512, bias=True)
                (drop2): Dropout(p=0.0, inplace=False)
              )
              (drop_path2): Identity()
            )
            (1): ChannelBlock(
              (cpe1): ConvPosEnc(
                (proj): Conv2d(512, 512, kernel_size=(3, 3), stride=(1, 1), padding=(1, 1), groups=512)
                (act): Identity()
              )
              (norm1): LayerNorm((512,), eps=1e-05, elementwise_affine=True)
              (attn): ChannelAttention(
                (qkv): Linear(in_features=512, out_features=1536, bias=True)
                (proj): Linear(in_features=512, out_features=512, bias=True)
              )
              (drop_path1): Identity()
              (cpe2): ConvPosEnc(
                (proj): Conv2d(512, 512, kernel_size=(3, 3), stride=(1, 1), padding=(1, 1), groups=512)
                (act): Identity()
              )
              (norm2): LayerNorm((512,), eps=1e-05, elementwise_affine=True)
              (mlp): Mlp(
                (fc1): Linear(in_features=512, out_features=2048, bias=True)
                (act): GELU(approximate='none')
                (drop1): Dropout(p=0.0, inplace=False)
                (norm): Identity()
                (fc2): Linear(in_features=2048, out_features=512, bias=True)
                (drop2): Dropout(p=0.0, inplace=False)
              )
              (drop_path2): Identity()
            )
          )
          (5): Sequential(
            (0): SpatialBlock(
              (cpe1): ConvPosEnc(
                (proj): Conv2d(512, 512, kernel_size=(3, 3), stride=(1, 1), padding=(1, 1), groups=512)
                (act): Identity()
              )
              (norm1): LayerNorm((512,), eps=1e-05, elementwise_affine=True)
              (attn): WindowAttention(
                (qkv): Linear(in_features=512, out_features=1536, bias=True)
                (proj): Linear(in_features=512, out_features=512, bias=True)
                (softmax): Softmax(dim=-1)
              )
              (drop_path1): Identity()
              (cpe2): ConvPosEnc(
                (proj): Conv2d(512, 512, kernel_size=(3, 3), stride=(1, 1), padding=(1, 1), groups=512)
                (act): Identity()
              )
              (norm2): LayerNorm((512,), eps=1e-05, elementwise_affine=True)
              (mlp): Mlp(
                (fc1): Linear(in_features=512, out_features=2048, bias=True)
                (act): GELU(approximate='none')
                (drop1): Dropout(p=0.0, inplace=False)
                (norm): Identity()
                (fc2): Linear(in_features=2048, out_features=512, bias=True)
                (drop2): Dropout(p=0.0, inplace=False)
              )
              (drop_path2): Identity()
            )
            (1): ChannelBlock(
              (cpe1): ConvPosEnc(
                (proj): Conv2d(512, 512, kernel_size=(3, 3), stride=(1, 1), padding=(1, 1), groups=512)
                (act): Identity()
              )
              (norm1): LayerNorm((512,), eps=1e-05, elementwise_affine=True)
              (attn): ChannelAttention(
                (qkv): Linear(in_features=512, out_features=1536, bias=True)
                (proj): Linear(in_features=512, out_features=512, bias=True)
              )
              (drop_path1): Identity()
              (cpe2): ConvPosEnc(
                (proj): Conv2d(512, 512, kernel_size=(3, 3), stride=(1, 1), padding=(1, 1), groups=512)
                (act): Identity()
              )
              (norm2): LayerNorm((512,), eps=1e-05, elementwise_affine=True)
              (mlp): Mlp(
                (fc1): Linear(in_features=512, out_features=2048, bias=True)
                (act): GELU(approximate='none')
                (drop1): Dropout(p=0.0, inplace=False)
                (norm): Identity()
                (fc2): Linear(in_features=2048, out_features=512, bias=True)
                (drop2): Dropout(p=0.0, inplace=False)
              )
              (drop_path2): Identity()
            )
          )
          (6): Sequential(
            (0): SpatialBlock(
              (cpe1): ConvPosEnc(
                (proj): Conv2d(512, 512, kernel_size=(3, 3), stride=(1, 1), padding=(1, 1), groups=512)
                (act): Identity()
              )
              (norm1): LayerNorm((512,), eps=1e-05, elementwise_affine=True)
              (attn): WindowAttention(
                (qkv): Linear(in_features=512, out_features=1536, bias=True)
                (proj): Linear(in_features=512, out_features=512, bias=True)
                (softmax): Softmax(dim=-1)
              )
              (drop_path1): Identity()
              (cpe2): ConvPosEnc(
                (proj): Conv2d(512, 512, kernel_size=(3, 3), stride=(1, 1), padding=(1, 1), groups=512)
                (act): Identity()
              )
              (norm2): LayerNorm((512,), eps=1e-05, elementwise_affine=True)
              (mlp): Mlp(
                (fc1): Linear(in_features=512, out_features=2048, bias=True)
                (act): GELU(approximate='none')
                (drop1): Dropout(p=0.0, inplace=False)
                (norm): Identity()
                (fc2): Linear(in_features=2048, out_features=512, bias=True)
                (drop2): Dropout(p=0.0, inplace=False)
              )
              (drop_path2): Identity()
            )
            (1): ChannelBlock(
              (cpe1): ConvPosEnc(
                (proj): Conv2d(512, 512, kernel_size=(3, 3), stride=(1, 1), padding=(1, 1), groups=512)
                (act): Identity()
              )
              (norm1): LayerNorm((512,), eps=1e-05, elementwise_affine=True)
              (attn): ChannelAttention(
                (qkv): Linear(in_features=512, out_features=1536, bias=True)
                (proj): Linear(in_features=512, out_features=512, bias=True)
              )
              (drop_path1): Identity()
              (cpe2): ConvPosEnc(
                (proj): Conv2d(512, 512, kernel_size=(3, 3), stride=(1, 1), padding=(1, 1), groups=512)
                (act): Identity()
              )
              (norm2): LayerNorm((512,), eps=1e-05, elementwise_affine=True)
              (mlp): Mlp(
                (fc1): Linear(in_features=512, out_features=2048, bias=True)
                (act): GELU(approximate='none')
                (drop1): Dropout(p=0.0, inplace=False)
                (norm): Identity()
                (fc2): Linear(in_features=2048, out_features=512, bias=True)
                (drop2): Dropout(p=0.0, inplace=False)
              )
              (drop_path2): Identity()
            )
          )
          (7): Sequential(
            (0): SpatialBlock(
              (cpe1): ConvPosEnc(
                (proj): Conv2d(512, 512, kernel_size=(3, 3), stride=(1, 1), padding=(1, 1), groups=512)
                (act): Identity()
              )
              (norm1): LayerNorm((512,), eps=1e-05, elementwise_affine=True)
              (attn): WindowAttention(
                (qkv): Linear(in_features=512, out_features=1536, bias=True)
                (proj): Linear(in_features=512, out_features=512, bias=True)
                (softmax): Softmax(dim=-1)
              )
              (drop_path1): Identity()
              (cpe2): ConvPosEnc(
                (proj): Conv2d(512, 512, kernel_size=(3, 3), stride=(1, 1), padding=(1, 1), groups=512)
                (act): Identity()
              )
              (norm2): LayerNorm((512,), eps=1e-05, elementwise_affine=True)
              (mlp): Mlp(
                (fc1): Linear(in_features=512, out_features=2048, bias=True)
                (act): GELU(approximate='none')
                (drop1): Dropout(p=0.0, inplace=False)
                (norm): Identity()
                (fc2): Linear(in_features=2048, out_features=512, bias=True)
                (drop2): Dropout(p=0.0, inplace=False)
              )
              (drop_path2): Identity()
            )
            (1): ChannelBlock(
              (cpe1): ConvPosEnc(
                (proj): Conv2d(512, 512, kernel_size=(3, 3), stride=(1, 1), padding=(1, 1), groups=512)
                (act): Identity()
              )
              (norm1): LayerNorm((512,), eps=1e-05, elementwise_affine=True)
              (attn): ChannelAttention(
                (qkv): Linear(in_features=512, out_features=1536, bias=True)
                (proj): Linear(in_features=512, out_features=512, bias=True)
              )
              (drop_path1): Identity()
              (cpe2): ConvPosEnc(
                (proj): Conv2d(512, 512, kernel_size=(3, 3), stride=(1, 1), padding=(1, 1), groups=512)
                (act): Identity()
              )
              (norm2): LayerNorm((512,), eps=1e-05, elementwise_affine=True)
              (mlp): Mlp(
                (fc1): Linear(in_features=512, out_features=2048, bias=True)
                (act): GELU(approximate='none')
                (drop1): Dropout(p=0.0, inplace=False)
                (norm): Identity()
                (fc2): Linear(in_features=2048, out_features=512, bias=True)
                (drop2): Dropout(p=0.0, inplace=False)
              )
              (drop_path2): Identity()
            )
          )
          (8): Sequential(
            (0): SpatialBlock(
              (cpe1): ConvPosEnc(
                (proj): Conv2d(512, 512, kernel_size=(3, 3), stride=(1, 1), padding=(1, 1), groups=512)
                (act): Identity()
              )
              (norm1): LayerNorm((512,), eps=1e-05, elementwise_affine=True)
              (attn): WindowAttention(
                (qkv): Linear(in_features=512, out_features=1536, bias=True)
                (proj): Linear(in_features=512, out_features=512, bias=True)
                (softmax): Softmax(dim=-1)
              )
              (drop_path1): Identity()
              (cpe2): ConvPosEnc(
                (proj): Conv2d(512, 512, kernel_size=(3, 3), stride=(1, 1), padding=(1, 1), groups=512)
                (act): Identity()
              )
              (norm2): LayerNorm((512,), eps=1e-05, elementwise_affine=True)
              (mlp): Mlp(
                (fc1): Linear(in_features=512, out_features=2048, bias=True)
                (act): GELU(approximate='none')
                (drop1): Dropout(p=0.0, inplace=False)
                (norm): Identity()
                (fc2): Linear(in_features=2048, out_features=512, bias=True)
                (drop2): Dropout(p=0.0, inplace=False)
              )
              (drop_path2): Identity()
            )
            (1): ChannelBlock(
              (cpe1): ConvPosEnc(
                (proj): Conv2d(512, 512, kernel_size=(3, 3), stride=(1, 1), padding=(1, 1), groups=512)
                (act): Identity()
              )
              (norm1): LayerNorm((512,), eps=1e-05, elementwise_affine=True)
              (attn): ChannelAttention(
                (qkv): Linear(in_features=512, out_features=1536, bias=True)
                (proj): Linear(in_features=512, out_features=512, bias=True)
              )
              (drop_path1): Identity()
              (cpe2): ConvPosEnc(
                (proj): Conv2d(512, 512, kernel_size=(3, 3), stride=(1, 1), padding=(1, 1), groups=512)
                (act): Identity()
              )
              (norm2): LayerNorm((512,), eps=1e-05, elementwise_affine=True)
              (mlp): Mlp(
                (fc1): Linear(in_features=512, out_features=2048, bias=True)
                (act): GELU(approximate='none')
                (drop1): Dropout(p=0.0, inplace=False)
                (norm): Identity()
                (fc2): Linear(in_features=2048, out_features=512, bias=True)
                (drop2): Dropout(p=0.0, inplace=False)
              )
              (drop_path2): Identity()
            )
          )
        )
      )
      (3): DaVitStage(
        (downsample): Downsample(
          (norm): LayerNorm2d((512,), eps=1e-05, elementwise_affine=True)
          (conv): Conv2d(512, 1024, kernel_size=(2, 2), stride=(2, 2))
        )
        (blocks): Sequential(
          (0): Sequential(
            (0): SpatialBlock(
              (cpe1): ConvPosEnc(
                (proj): Conv2d(1024, 1024, kernel_size=(3, 3), stride=(1, 1), padding=(1, 1), groups=1024)
                (act): Identity()
              )
              (norm1): LayerNorm((1024,), eps=1e-05, elementwise_affine=True)
              (attn): WindowAttention(
                (qkv): Linear(in_features=1024, out_features=3072, bias=True)
                (proj): Linear(in_features=1024, out_features=1024, bias=True)
                (softmax): Softmax(dim=-1)
              )
              (drop_path1): Identity()
              (cpe2): ConvPosEnc(
                (proj): Conv2d(1024, 1024, kernel_size=(3, 3), stride=(1, 1), padding=(1, 1), groups=1024)
                (act): Identity()
              )
              (norm2): LayerNorm((1024,), eps=1e-05, elementwise_affine=True)
              (mlp): Mlp(
                (fc1): Linear(in_features=1024, out_features=4096, bias=True)
                (act): GELU(approximate='none')
                (drop1): Dropout(p=0.0, inplace=False)
                (norm): Identity()
                (fc2): Linear(in_features=4096, out_features=1024, bias=True)
                (drop2): Dropout(p=0.0, inplace=False)
              )
              (drop_path2): Identity()
            )
            (1): ChannelBlock(
              (cpe1): ConvPosEnc(
                (proj): Conv2d(1024, 1024, kernel_size=(3, 3), stride=(1, 1), padding=(1, 1), groups=1024)
                (act): Identity()
              )
              (norm1): LayerNorm((1024,), eps=1e-05, elementwise_affine=True)
              (attn): ChannelAttention(
                (qkv): Linear(in_features=1024, out_features=3072, bias=True)
                (proj): Linear(in_features=1024, out_features=1024, bias=True)
              )
              (drop_path1): Identity()
              (cpe2): ConvPosEnc(
                (proj): Conv2d(1024, 1024, kernel_size=(3, 3), stride=(1, 1), padding=(1, 1), groups=1024)
                (act): Identity()
              )
              (norm2): LayerNorm((1024,), eps=1e-05, elementwise_affine=True)
              (mlp): Mlp(
                (fc1): Linear(in_features=1024, out_features=4096, bias=True)
                (act): GELU(approximate='none')
                (drop1): Dropout(p=0.0, inplace=False)
                (norm): Identity()
                (fc2): Linear(in_features=4096, out_features=1024, bias=True)
                (drop2): Dropout(p=0.0, inplace=False)
              )
              (drop_path2): Identity()
            )
          )
        )
      )
    )
    (norm_pre): Identity()
    (head): NormMlpClassifierHead(
      (global_pool): SelectAdaptivePool2d(pool_type=avg, flatten=Identity())
      (norm): LayerNorm2d((1024,), eps=1e-05, elementwise_affine=True)
      (flatten): Flatten(start_dim=1, end_dim=-1)
      (pre_logits): Identity()
      (drop): Dropout(p=0.0, inplace=False)
      (fc): Linear(in_features=1024, out_features=1, bias=True)
    )
  )
  (1): Sigmoid()
)
Starting training...
--------------------











100%|██████████████████████████████████████████████████████████████████████████████████| 74/74 [00:24<00:00,  3.00it/s]
 22%|██████████████████                                                                 | 5/23 [00:00<00:02,  8.21it/s]
New threshold is 0.48458895087242126
…
